DL4Epi/save/tmp.pt (torch_old, 46473 bytes, 8 tensors)

mask_mat f4 [16, 16]
00000000: 2a70 4abd 9973 4f3d 0055 7328 0100 0000
00000010: 0064 7712 0100 0000 ceec 013d 0100 0000
00000020: f0b3 7828 0100 0000 fc8f 3b3d 0100 0000
00000030: 100f 7728 0100 0000 1057 3a28 0100 0000
00000040: f354 4bbd f873 433d e02c 3a28 0100 0000
00000050: f021 3a28 0100 0000 4458 74bb 0100 0000
00000060: 90f7 3928 0100 0000 10de 7628 0100 0000
00000070: eec2 323d 0100 0000 50d2 3928 1ced 063d
00000080: 70c7 3928 0100 0000 83fd 2e3d cf01 1b3d
00000090: c036 4928 0100 0000 70ab 7228 0100 0000
000000a0: e08c da1b 0100 0000 504b e91b 0100 0000
000000b0: c032 3e28 0100 0000 20eb 7228 0100 0000
000000c0: e0df 7228 0100 0000 88f0 383d e5b2 2c3d
000000d0: 7004 eb1b 0100 0000 f08e 7528 36d5 363d
000000e0: ee9a 373d 0100 0000 3085 4928 0100 0000
000000f0: 3f56 3b3d d5dd 3d3d a06c da1b 0100 0000
00000100: 6061 da1b 0100 0000 70bb 5f28 0100 0000
00000110: 099e 433d 0100 0000 909a 5f28 0100 0000
00000120: 2662 413d 0100 0000 90e2 7c28 0100 0000
00000130: 50d7 7c28 0100 0000 a0bc 7d28 0100 0000
00000140: 505c d01b 0100 0000 e00f 4328 0100 0000
00000150: d07d e11b 2658 243d f014 7828 0100 0000
00000160: a34a 463d 0100 0000 b0ea 3228 0100 0000
00000170: 70df 3228 0100 0000 8ee4 483d 0100 0000
00000180: eeee 44bd bc37 483d c035 df1b 0100 0000
00000190: f0c3 7a28 0100 0000 e697 133d 0100 0000
000001a0: 2ae6 3e3d b669 0b3d 1c44 2f3d 0100 0000
000001b0: 507e 7e28 0100 0000 70e9 4d28 f8ba 2a3d
000001c0: 30de 4d28 0100 0000 40e0 7728 17a1 a63c
000001d0: 00d5 7728 0100 0000 f0ba 4d28 1c56 033d
000001e0: 76cc e63c 0100 0000 3073 b624 0100 0000
000001f0: 306a b624 0100 0000 cdf1 ce3c 0100 0000
00000200: 0000 0000 0000 0000 00af 7728 0c99 303d
00000210: 388c 433d e5ca 323d d219 213d 4e89 353d
00000220: 4a46 423d f5a9 233d 00ca db1b 0100 0000
00000230: b0ed 7928 bdd1 403d 2e25 453d 255e 2c3d
00000240: 0018 4d28 0100 0000 1087 dd1b 0100 0000
00000250: 107b dd1b 0100 0000 be0a 303d 0100 0000
00000260: 8425 483d 44d8 2f3d 33cc 3c3d 0100 0000
00000270: c064 3528 0100 0000 0000 7028 0100 0000
00000280: 279a 3cbd 0100 0000 30e9 4728 0100 0000
00000290: f0dd 4728 0100 0000 74fa 103d 0100 0000
000002a0: b042 b024 a6be 023d 5841 2b3d 85f2 393d
000002b0: 00ae 4728 0100 0000 703d 7428 0100 0000
000002c0: 3032 7428 0100 0000 1090 4728 0100 0000
000002d0: d084 4728 0100 0000 40fd 7528 0100 0000
000002e0: 00f2 7528 0100 0000 2f01 363d 194f 4f3d
000002f0: f044 3628 0100 0000 00dc 7828 0100 0000
00000300: b0f9 7b28 4a0e 033d 709e 0b28 2da8 a73c
00000310: 606e 0b28 0100 0000 2099 ec1b 0100 0000
00000320: 70cf 4628 0100 0000 80cc 7828 0100 0000
00000330: a28b ce3c 468b d03c 6009 7c28 1a32 983c
00000340: 20fe 7b28 0100 0000 10a9 4628 909a e03c
00000350: d09d 4628 0100 0000 f0e1 7b28 0100 0000
00000360: e61f 153d 0100 0000 3079 4628 0100 0000
00000370: 98c3 0b3d 47a9 0e3d 2050 7b28 e771 db3c
00000380: e044 7b28 0100 0000 4058 4e28 0100 0000
00000390: 004d 4e28 3cb4 2d3d 6002 7e28 9d41 3e3d
000003a0: afa9 463d 0100 0000 7027 4e28 0100 0000
000003b0: 601e 4e28 0100 0000 d388 4a3d 0100 0000
000003c0: a059 7228 90cf 2f3d 2015 3728 0100 0000
000003d0: e009 3728 0100 0000 b95e b0bb 0100 0000
000003e0: 37bc 123d 0100 0000 0098 3228 0100 0000
000003f0: 2ca9 113d e4e3 143d 50c8 7928 2dd9 d23c
-0.049423374 0.050647352 1.3507641e-14 1e-45 7.8062717e-28 1e-45 0.031719975 1e-45
1.3805783e-14 1e-45 0.04579161 1e-45 1.37145205e-14 1e-45 1.0343953e-14 1e-45
-0.04964156 0.04771802 1.0334805e-14 1e-45 1.0332433e-14 1e-45 -0.0037284056 1e-45
1.03232445e-14 1e-45 1.3703895e-14 1e-45 0.04364293 1e-45 1.0315167e-14 0.03294097
1.0312809e-14 1e-45 0.042722236 0.03784352 1.1169613e-14 1e-45 1.3470873e-14 1e-45
3.6156113e-22 1e-45 3.8595286e-22 1e-45 1.0558123e-14 1e-45 1.3484683e-14 1e-45
1.3482244e-14 1e-45 0.045151263 0.042162795 3.8880356e-22 1e-45 1.3631227e-14 0.044636928
0.044825487 1e-45 1.1186622e-14 1e-45 0.045736548 0.046354134 3.6135272e-22 1e-45
3.6128002e-22 1e-45 1.2419631e-14 1e-45 0.047758136 1e-45 1.2412502e-14 1e-45
0.047212742 1e-45 1.4037938e-14 1e-45 1.40354986e-14 1e-45 1.4085223e-14 1e-45
3.447037e-22 1e-45 1.0828117e-14 1e-45 3.7304432e-22 0.040123127 1.3771306e-14 1e-45
0.048411023 1e-45 9.931875e-15 1e-45 9.929435e-15 1e-45 0.04904609 1e-45
-0.048079424 0.048881277 3.692699e-22 1e-45 1.3920275e-14 1e-45 0.036033534 1e-45
0.04660622 0.03403636 0.042789564 1e-45 1.4127222e-14 1e-45 1.1430405e-14 0.041682214
1.1427965e-14 1e-45 1.3759881e-14 0.020340485 1.3757441e-14 1e-45 1.1420322e-14 0.032064542
0.028173666 1e-45 7.9125053e-17 1e-45 7.910981e-17 1e-45 0.025261784 1e-45
0.0 0.0 1.37492014e-14 0.043114707 0.047741145 0.043650527 0.039331265 0.044320397
0.047430314 0.039957006 3.636105e-22 1e-45 1.3873817e-14 0.047075022 0.04813116 0.04208197
1.138499e-14 1e-45 3.6648665e-22 1e-45 3.664091e-22 1e-45 0.042978995 1e-45
0.048863903 0.042930856 0.046093177 1e-45 1.0069365e-14 1e-45 1.3322676e-14 1e-45
-0.04604545 1e-45 1.10972836e-14 1e-45 1.1094844e-14 1e-45 0.0353951 1e-45
7.6440806e-17 0.031920098 0.041810364 0.0453973 1.1084449e-14 1e-45 1.3558043e-14 1e-45
1.3555604e-14 1e-45 1.1077958e-14 1e-45 1.1075518e-14 1e-45 1.3655147e-14 1e-45
1.36527074e-14 1e-45 0.044434723 0.050612543 1.0117978e-14 1e-45 1.381447e-14 1e-45
1.3987441e-14 0.03199605 7.750406e-15 0.020465935 7.739984e-15 1e-45 3.914188e-22 1e-45
1.1036189e-14 1e-45 1.3811109e-14 1e-45 0.025213066 0.025457036 1.3990843e-14 0.018578578
1.39884035e-14 1e-45 1.10278675e-14 0.027417451 1.1025428e-14 1e-45 1.3982291e-14 1e-45
0.036407374 1e-45 1.1017486e-14 1e-45 0.03412208 0.034829404 1.3950673e-14 0.026787711
1.3948234e-14 1e-45 1.1454433e-14 1e-45 1.1451994e-14 0.042408213 1.4100347e-14 0.046449292
0.048501667 1e-45 1.1443849e-14 1e-45 1.1441884e-14 1e-45 0.049446892 1e-45
1.3453133e-14 0.042922556 1.01631214e-14 1e-45 1.0160682e-14 1e-45 -0.0053823856 1e-45
0.035824027 1e-45 9.913945e-15 1e-45 0.035561725 0.036350146 1.38657125e-14 0.025738323

GRU1.weight_ih_l0 f4 [150, 16]
00000000: 79fd 68bd da9d 383c 205f 953d 1852 083e
00000010: 26e3 ae3d f780 c9bd 5f6c d3bd a792 c7bd
00000020: b862 e9bd 0c93 593d b3e4 003e 32e9 1f3e
00000030: 0f43 fc3d 7021 0c3e d490 c3bd ea9b e0bd
00000040: 36cb 09be 5c0e cabd b8c6 253e 2544 573d
00000050: f8eb 0c3e bbb9 af3d c75b 903d 7bcf bc3d
00000060: 45fe 163e bec4 743b 69e8 fc3d 1328 6c3d
00000070: 19d3 183d f924 94bd e9b7 75bd c594 123e
00000080: 344e 2c3d aea9 ddbd 6bc9 24bd fe7f f1bd
00000090: 551a 85bd 2453 16be d25f e4bd 609f c83c
000000a0: d869 8fbd 2696 013d 93e1 de3d 26f6 38bc
000000b0: 1785 e1bd 47b0 30bd e703 a4bd 59b8 c73d
000000c0: 4804 15be 96e9 9abd efd3 a5bd 7a23 ddbd
000000d0: e416 c3bc 79b0 653d 801e 4fbd 51d4 36bd
000000e0: 9398 2b3e 1f7a c33c 2b88 923d ab13 cbbd
000000f0: 80ca 703c 27df b9bd 4ea8 a93b b5f9 91bc
00000100: 9250 30bd 0e0f d53d 710a fd3d 71b3 1a3d
00000110: 7115 fa3d 37ce 213e f188 31bd 0a22 0cbd
00000120: 25d2 1d3e 900f e63d 7583 c9bd 9e15 96bd
00000130: 90b0 d63d cae1 8d3c b46a 8cbd 5bab 623d
00000140: 8adc 82bb 9af5 01bd 1d27 f5bd 88bb 063d
00000150: fae0 693c 83d0 bd3d b0e6 95bd bf51 b1bd
00000160: 7408 033e 3503 313c ef1f 043e 2b57 babd
00000170: 200f cabd 20c0 fbbc 5a7a 8ebc d5e4 d13d
00000180: 3468 7e3d dcf2 113d 6f88 c8bd 40d4 0d3e
00000190: 6ee0 b53d ecfa 25bd 6001 1d3e 5dab 1c3e
000001a0: 28c7 86bc ee08 933d b575 1a3e de7a 0f3e
000001b0: ffec 853d 5b24 dc3d a6f9 113e 9ba0 243e
000001c0: bb3e b33d 2f2a cb3d 12f9 fa3d e158 00bc
000001d0: bcd1 f33d 5acb 6a3d d918 47bd 9e38 a03d
000001e0: c57b 0ebd 8574 8fbd d7ab 9c3c 9e1c 603d
000001f0: 0fe5 9cbd ee19 d33d 0b80 423d e256 793d
00000200: 8805 533c ccb4 f93c c7af 383d cdc5 843d
00000210: 4774 173c af26 17bd 7de1 213e 54ef 343e
00000220: 2e2f e33c 7f6e 283e 7255 753c 1c81 393d
00000230: 718d c5bc 85dd d73c c0d5 8cbd 9663 58bd
00000240: 2dbc eabd 836e a5bc 969b 1abd b08a 71bd
00000250: e0d6 3d3d 1620 ecbb a6bf 083d 7c39 223e
00000260: 25af 07bd 0bfa 363d 09fc b33d 1a35 5c3d
00000270: 2a8e a2bd bd27 cfbd 9d9a b1bd 0ce2 3dbd
00000280: b548 0d3d a320 6fbd bf81 003e 0cc5 223e
00000290: 488f f63d c316 303e ac96 3b3d 5fc5 223e
000002a0: 9225 7dbd c81b a23c 9f68 8fbd 66f2 ae3b
000002b0: 4731 263c e249 e43c a4bd 0e3e 5aff d93d
000002c0: 859a bebc fe2f 96bd 081d 73bb 444b 7c3c
000002d0: 999e 2d3e 3de7 653d a0d9 0c3e 1a64 283d
000002e0: b9f1 193d 5405 2f3e f022 2a3e 9cf6 babc
000002f0: efcf f2bd 15f4 03bd f139 053e 710c dabd
00000300: c345 2e3c 939f 5abd 1cef 023e eced c03d
00000310: 7508 5abd d5e5 623d 6a88 59bc 786a 0c3e
00000320: 2616 a5bd 3901 1f3e b461 123d b156 0cbd
00000330: a395 41bd fd2e 773c 1a6c 063e 2286 94bd
00000340: 66cb 093d f2ca a3bc 212b 0cbc 3159 4fbd
00000350: b6c9 bb3d 34be db3d 5a67 143c 362e 913d
00000360: 11cf 9f3b c796 e93d 5d4a 02be 0367 893d
00000370: 73ea b2bd bfe0 40bc c000 02be 86be f43d
00000380: 64a5 c03d f7a1 c7bd 243b 2abc ca25 72bd
00000390: e87f 5c3d adc0 433d 04e2 90bd 0e6a 4e3c
000003a0: 653e 333d 6141 c73c 0388 743d 2ffc 963d
000003b0: f50a 01be 3249 e23d 43ab f63d 1889 d5bc
000003c0: 0f3e 91bd d74b 7c3c a380 c9bd 8156 2a3e
000003d0: ca35 0a3e 9c81 c93d dca0 553c 689f c2bc
000003e0: 1bc6 363e f714 64bd 5118 de3b 7934 2a3e
000003f0: 81f1 053e 58d5 343e 0bf3 0f3e 4c7f 93bd
-0.056882355 0.0112681035 0.07293534 0.13312566 0.08539419 -0.09839051 -0.103234045 -0.097447686
-0.11395782 0.05311875 0.12587242 0.156163 0.12317478 0.1368463 -0.09549108 -0.10967238
-0.13456425 -0.0986602 0.16189086 0.052555222 0.1376189 0.08580347 0.07048755 0.09219261
0.14745434 0.0037348713 0.12349016 0.057655405 0.037310693 -0.072336145 -0.059989844 0.14314564
0.042066768 -0.108233795 -0.04023115 -0.11791991 -0.06499163 -0.14680153 -0.11151089 0.024490058
-0.0700261 0.031637333 0.108828686 -0.011289155 -0.11011713 -0.04313686 -0.08008557 0.097519584
-0.14552414 -0.07564084 -0.08097064 -0.10797782 -0.023814626 0.0560765 -0.050566196 -0.044636074
0.16757421 0.023861943 0.07154878 -0.09915861 0.014696717 -0.09075766 0.005177534 -0.017819265
-0.043045588 0.10403262 0.12355507 0.037768785 0.12211121 0.15801321 -0.043343488 -0.03421215
0.15412195 0.11233437 -0.098395266 -0.07328342 0.104828954 0.017319579 -0.068562895 0.0553392
-0.0039935755 -0.031728365 -0.11970351 0.032893687 0.01427483 0.09268286 -0.07319391 -0.0865817
0.12796193 0.010803987 0.12902807 -0.09098657 -0.09866166 -0.03073126 -0.017392326 0.10248724
0.062111095 0.035632 -0.09791648 0.13850498 0.08880697 -0.0405225 0.15332556 0.15299745
-0.016452387 0.071794376 0.15083964 0.14011714 0.06539344 0.10749122 0.1425539 0.16076891
0.08752199 0.09920155 0.12254538 -0.00783369 0.11905238 0.057322837 -0.04860768 0.07823299
-0.034786005 -0.07004646 0.019124908 0.05471479 -0.07660877 0.1030768 0.047485393 0.060873874
0.012879737 0.030481718 0.04508951 0.0648304 0.009244031 -0.036902126 0.15808673 0.17669421
0.027732458 0.16448401 0.014973985 0.045289144 -0.024115296 0.026350746 -0.06876707 -0.052829348
-0.11461673 -0.020194298 -0.037746035 -0.058970153 0.0463475 -0.0072059734 0.033385895 0.15842241
-0.033126015 0.044672053 0.08788306 0.05376158 -0.07937272 -0.10115001 -0.08672068 -0.046358153
0.034493167 -0.058380734 0.12549494 0.1589548 0.120390475 0.17196183 0.04579799 0.15895604
-0.061803408 0.019788638 -0.07002377 0.0053389547 0.010143585 0.027867261 0.1393953 0.106444076
-0.02326704 -0.073333725 -0.0037096161 0.015398804 0.16955031 0.05612873 0.13754892 0.04111109
0.03758404 0.17091876 0.1661489 -0.02282267 -0.118560664 -0.032215197 0.13010384 -0.10646904
0.01063675 -0.053374838 0.12786525 0.0942038 -0.05323072 0.055394966 -0.013277153 0.1371249
-0.08060865 0.1552781 0.03573771 -0.034262363 -0.047261845 0.0150868865 0.13127175 -0.07252146
0.03364124 -0.019994233 -0.008555205 -0.05062217 0.09169333 0.10729638 0.009057844 0.07088892
0.004876979 0.114057116 -0.1272368 0.06709101 -0.08736124 -0.011772334 -0.12695599 0.11950402
0.09406546 -0.09747689 -0.010390077 -0.05911807 0.05383292 0.04779117 -0.07074359 0.012598528
0.043760676 0.024323167 0.059700023 0.07372319 -0.12601836 0.11049117 0.12044384 -0.026066348
-0.07091915 0.015398941 -0.09838989 0.16634561 0.13497081 0.09839174 0.01303884 -0.023757651
0.17849009 -0.055684056 0.006777801 0.16621579 0.13080408 0.17659509 0.14057557 -0.07202014

GRU1.weight_hh_l0 f4 [150, 50]
00000000: 23b5 a4bc b5c7 133e 0574 d2bd f551 9bbd
00000010: 6415 ebbd 24ae c23d c557 bbbd 265e 193e
00000020: 3fc7 333d 608d babd 1c9f 08be c7ee 7fbd
00000030: 7b07 cdbd 6479 a8bc a71c b7bd f38b 1c3d
00000040: 7d46 97bd 76ad 0abe ba79 04be f625 0cbd
00000050: afab 7abc 2c21 c03d 8aa9 783d 788b f53d
00000060: 372c 00be a56a a03b 7ac9 e7bd a2a1 373d
00000070: 89e8 a33d 080b 8dbd fa8a cc3d aa61 163e
00000080: dc90 aebd d0c4 d73d e8b5 ccbc f9b7 053e
00000090: 40c4 7ebc 7c1e 023d 0550 4cbd 7363 0ebe
000000a0: 71b3 a13d f4af 1a3c b843 9bbd 9035 90bd
000000b0: 40da c33d 98ca 193d fe24 a8bd 0750 f4bd
000000c0: 92dd 8dbd e453 173d f5a5 1cbe 65f3 f33d
000000d0: a12d 04be 42d3 043e 14a5 04be 0594 0c3e
000000e0: 581a d3bd 9163 453d c654 11bd 4dd5 013e
000000f0: 0847 e2bd 8679 983d 0a60 5a3d 09b9 7abd
00000100: 3ad9 643d 4f63 bf3a 1f52 13be 365a 243d
00000110: beaa 30bc 016b 0fbd 2573 06be 238e dc3d
00000120: 8cda 0cbc 08ce 10bd b409 00be d562 67bd
00000130: 7403 dc3c df53 6dbd 08bf 033b aec6 4d3d
00000140: b371 0cbe dd86 563d 04b4 aebc a985 2e3e
00000150: 03f3 183e c354 833c cce5 aebd 1adb 0abe
00000160: c9ed aebd 8349 61bc afe7 943d dae2 bdbd
00000170: e125 fbbc e1dd 1d3e 646f 763d 3b0a 7e3d
00000180: cb88 0e3d b838 8a3d 43a6 e23d 5233 00bd
00000190: 8320 363d 65ae f13b 5206 693d e7b3 cfbd
000001a0: d37f 89bd b5a2 2ebe 1a79 1e3e d7f3 fc3d
000001b0: fbd5 55bd 960f ea3d 75f7 f03d 888a f339
000001c0: ab9f 45bd 1c89 fdbc 7754 943d dfa6 ce3d
000001d0: a5bc 34bd f2b5 183d 7bb9 1e3e 2583 d7bc
000001e0: fe82 3dbc 895a 66bd b9b1 8fbd 09ab 8cbd
000001f0: 1db2 513d eff7 54bd 2a0d 5cbd 1d05 85bc
00000200: bc0f f7bc 8a6b 793d a942 4a3c f5ec 0d3d
00000210: ed47 e8bd 46b8 e3bd 36ad 26bc 8134 473d
00000220: 91c4 853d 819d 103e f30b 8d3d 112f fbbc
00000230: ef3b 13be 191b 833d 00aa bd3d b4fb 8fbd
00000240: fb81 aa3c dc68 04bd f147 d5bc 5e16 273d
00000250: a609 bcbd 53c8 683d 08f7 e53d b7d2 b33d
00000260: 0c50 fcbd bb3f 58bc 7b10 6e3d 21eb 06bd
00000270: 72af 18bd 9b00 123d 2816 943d dba4 e6bd
00000280: 9c89 f83d ca82 e93d 41c9 e9bd b02b fb3d
00000290: 6714 b63d 4b93 89bd f463 a8bd a857 7bbd
000002a0: 9869 50bd 9348 923d 2e26 16be a823 a03b
000002b0: d005 e1bd c078 9f3d 64ed f53d a273 2e3d
000002c0: 4966 c5bd 3b01 20be 9065 403d 5060 c9bd
000002d0: db78 823d 359e a73d 40cd 83bc fd5c aabd
000002e0: 4941 85bd 6033 03be 4401 2f3d 3eb1 8d3d
000002f0: 72a0 f9bb 0a28 dabd a95f 39bd f812 febd
00000300: cfc0 1a3e 0cfc 98bd 0f6d cf3d 54a1 b03d
00000310: ee57 e6bd 06d9 203d 88bb cc3d d0b5 f13d
00000320: 7bd8 00be 4b75 fcbd ca69 f23d 067a b4bd
00000330: 88ab edbd 613e a1bd 4666 313d f972 e63d
00000340: 03bb c53c a13a 893d 6679 ccbd 9d2c 133e
00000350: d4d3 143e 9ff8 db3d 52fe 073e 2b3e e03c
00000360: 055c eebd 4997 e73d 6413 323d 20ab f7bd
00000370: 7651 f3bc f93a a33c 2d29 993c 38ba 85bd
00000380: cf2e 6dbc 6aef 903d 7f1f 9fbc ce50 aebd
00000390: 0223 03be bb0c b33b c277 d63d 51a0 ef3c
000003a0: 862d c4bd 3152 f93d 96ef 98bd f6ec 823b
000003b0: a5cf 91bd 976a 093d 4991 9abc 5117 a73d
000003c0: 3dbe febd 613b 9ebd 793c b13c 76fb b53d
000003d0: 7312 d6bd 836e 0cbc e1a0 d9bd 4f34 ebbd
000003e0: e26d ae3d e796 b0bd 482e 93bd 3a82 d6bd
000003f0: 2a84 d53c fc40 9bbd 97ad ff3d 833f a8bd
-0.020105904 0.14431651 -0.10276035 -0.075839914 -0.11478689 0.09505871 -0.091476 0.14977321
0.043891188 -0.091089964 -0.13341945 -0.062483575 -0.100111924 -0.020565696 -0.08941012 0.038219403
-0.073864914 -0.13542733 -0.1293706 -0.03421589 -0.015299722 0.09381327 0.06070856 0.11989492
-0.12516867 0.0048955255 -0.113177255 0.04483188 0.08003337 -0.0688687 0.09987445 0.14685693
-0.085237235 0.10535586 -0.024989083 0.13058461 -0.015549719 0.031767353 -0.049881 -0.13905124
0.07895554 0.009441365 -0.07581276 -0.07041466 0.09563112 0.037546724 -0.08210181 -0.119293265
-0.06927027 0.03694524 -0.15297683 0.11911658 -0.12908031 0.12971213 -0.12953597 0.1372834
-0.10307759 0.048190657 -0.035481237 0.12679024 -0.110487044 0.07445054 0.053314246 -0.06121162
0.055871226 0.001460174 -0.14386795 0.040125094 -0.010782896 -0.035014156 -0.13129862 0.10769298
-0.0085970275 -0.035352737 -0.12503701 -0.056490738 0.026857115 -0.057941314 0.0020102877 0.050238304
-0.13715248 0.05237471 -0.021326073 0.17043175 0.14936452 0.016031628 -0.08539924 -0.13560143
-0.08541448 -0.013750437 0.07270753 -0.09271784 -0.03065771 0.15416671 0.060164824 0.062021475
0.034798425 0.067490995 0.11066868 -0.031298943 0.0444646 0.007375526 0.056890793 -0.101417355
-0.06713834 -0.17054255 0.15475884 0.12351196 -0.05220602 0.11428754 0.11765949 0.00046451786
-0.048247974 -0.030949168 0.07242673 0.10090422 -0.044125218 0.03728289 0.15500443 -0.026307652
-0.0115668755 -0.056238685 -0.0701632 -0.0686856 0.051195253 -0.05199426 -0.05372349 -0.01623779
-0.03015887 0.060893573 0.012344995 0.034649808 -0.11341844 -0.11119132 -0.010173133 0.048634056
0.06531633 0.14122583 0.06887045 -0.030662091 -0.14378332 0.06401653 0.092609406 -0.070304304
0.020813933 -0.032326564 -0.02603528 0.040792815 -0.09181528 0.05683167 0.11228758 0.08780425
-0.12319955 -0.013198788 0.058121186 -0.03293908 -0.037276693 0.03564511 0.072307885 -0.112619124
0.12135622 0.11401899 -0.11415339 0.12264192 0.0889061 -0.06717547 -0.082221895 -0.061362892
-0.050881952 0.07142749 -0.14663002 0.004887063 -0.10987437 0.07786703 0.12008169 0.042590745
-0.0963865 -0.1562547 0.046971858 -0.09832823 0.063707076 0.081844725 -0.016089082 -0.08318517
-0.06506593 -0.12812567 0.042725816 0.06918572 -0.0076180035 -0.10652168 -0.045257244 -0.12405962
0.15112613 -0.07469949 0.10128223 0.08624521 -0.1124724 0.03926947 0.09996706 0.11802256
-0.12582581 -0.12327059 0.11836584 -0.088123366 -0.116049826 -0.07873226 0.043310426 0.11252398
0.024137026 0.06700636 -0.099840924 0.14372487 0.14533931 0.1074078 0.13280609 0.027373394
-0.11638645 0.11308152 0.043475524 -0.120931864 -0.02970193 0.019925581 0.018696392 -0.06529659
-0.014476492 0.070769146 -0.019424198 -0.08511506 -0.12806323 0.005464164 0.10472061 0.02925125
-0.095789954 0.1217388 -0.074675724 0.003995533 -0.07119683 0.033548918 -0.018868105 0.08158744
-0.12438629 -0.077261694 0.02163528 0.08885853 -0.10452738 -0.00857127 -0.10626388 -0.114845864
0.08517052 -0.08622532 -0.07186562 -0.104740575 0.026063997 -0.07580754 0.124842815 -0.08215239

GRU1.bias_ih_l0 f4 [150]
00000000: 36e1 4fbd dce0 8dbd 3fc9 693d 790c 133e
00000010: 977e dfbd ad80 f4bd bc79 c9bc cc76 c83d
00000020: e089 17bc ffc2 f73b 36d6 ab3d 1299 173e
00000030: 8090 af3a e923 27bc 47e4 c0bd f27c eb3d
00000040: 3ba4 223e c652 8cbd e0eb 2fbc a329 b53d
00000050: 5691 0c3e 80d9 1b3e 9b4c 0e3e baf0 1f3d
00000060: 00fd 6b3c 0144 95bd aa70 9fbd 52aa 923d
00000070: 7a15 5ebd 8b40 5ebd 2cda 14bc 71ee c83d
00000080: 593c 973d d434 d63c 8037 613d e8fd 753d
00000090: 7ed6 103e 583d bb3d 12c6 9c3d 5898 043e
000000a0: d8e4 b63d 4879 5bbd 3a97 b9bd 1084 a9bc
000000b0: f7f1 f03c 4e14 08be 9387 9f3c 9bb9 f33b
000000c0: 95e3 e13c 3351 db3d c27a 213d 5194 cc3d
000000d0: 2529 113d 20ed 6e3b 4f44 80bd 8e5b fdbd
000000e0: 3e0b d6bd 4a7a 273e eb97 02be 3ed0 043e
000000f0: e51d c0bd 1188 6abd cbe4 98bd 985b 0d3e
00000100: f1d4 993c 8822 afbd 7a1b cdbc 2ee4 d43c
00000110: 287e 103d 073b 173c a258 bf3d b9df 5cbd
00000120: d42f e83d 1422 903d e679 d6bd bf1c 973d
00000130: 7c68 1ebe b6f3 2c3d 4322 7fbd e2f1 0cbd
00000140: 18a8 d7bd c42c e7bd bd76 ab3d 6438 cabd
00000150: 7ac9 3abd 30d0 8239 0478 9a3d acc0 3fbd
00000160: 7d29 62bd 6790 2b3d f626 99bd a2cb 16be
00000170: 76f9 1f3c 283c a13d 364e 0fbe 5c11 44bd
00000180: 0c43 00be b6dd dbbd fcfe c63d e415 50bd
00000190: aad6 c6bd cd9e 123e 3ca2 ffbd ba62 8f3d
000001a0: 261f 08be 31f0 97bc 3c24 0ebe 99d6 e4bd
000001b0: 73cf 7cbd 59e7 283e c389 a2bd 8d11 ad3d
000001c0: fb0a ad3d 79b2 013e 14e9 b23d 2da8 a8bd
000001d0: ffed 2dbe 2d75 c4bd 316c 5abd 7ed5 04be
000001e0: 6eff 01be ac02 943d 4c6a 88bb 3687 21be
000001f0: 1d2d efbd 5ea1 c3bc ead4 eabd 22ba 8fbc
00000200: c0d4 dc3d 931a 103c 22bd 12be ef7a ef3d
00000210: 4bea b3bd df74 eb3d 68c1 fe3d 85de babc
00000220: 6ab8 2a3e b096 cabc c8d5 f53a cf30 86bc
00000230: 94ed 0b3d 73c9 95bb 5620 79bd 75fb d03d
00000240: 6daf 22be 414a a5bd 85bb ea3d 02c5 173e
00000250: cc3b b43d 8577 0abe
-0.050751887 -0.06927654 0.05707669 0.14360227 -0.10912817 -0.119386055 -0.02459418 0.09788284
-0.009249181 0.007561087 0.08390467 0.14804485 0.0013394505 -0.010201433 -0.094185404 0.11498441
0.15882961 -0.06851725 -0.010737389 0.08845832 0.13727316 0.15219688 0.1389641 0.039047934
0.014403582 -0.07288361 -0.07785161 0.07161392 -0.0542197 -0.05426077 -0.009085219 0.09811104
0.07384557 0.026148237 0.05498457 0.060056597 0.14144322 0.0914256 0.076549664 0.1294874
0.08930367 -0.05358246 -0.09062047 -0.020692855 0.029412253 -0.13288996 0.019473827 0.0074378974
0.02757434 0.10708847 0.03942371 0.099892266 0.03543963 0.0036457255 -0.06263029 -0.12370978
-0.10451363 0.16355243 -0.12753265 0.12970063 -0.09380702 -0.05725867 -0.07465514 0.13804471
0.018778296 -0.08551508 -0.025037516 0.02598771 0.035276562 0.009230382 0.09343077 -0.053924296
0.113372475 0.0703775 -0.10472469 0.0737853 -0.15469545 0.04222461 -0.062288534 -0.034410365
-0.10530108 -0.11287835 0.08372257 -0.09874037 -0.0456023 0.00024950644 0.075424224 -0.046814606
-0.055215348 0.04188576 -0.07478134 -0.14726117 0.009764066 0.07872802 -0.13994679 -0.047868118
-0.12525576 -0.107356474 0.09716603 -0.050802127 -0.09708913 0.1431839 -0.124821156 0.070012525
-0.13293132 -0.01854715 -0.1388101 -0.11173744 -0.061721276 0.16494502 -0.07936432 0.08450613
0.0844936 0.12665738 0.087358624 -0.08235202 -0.1698532 -0.09592662 -0.053325836 -0.12972066
-0.12695095 0.07227072 -0.004163062 -0.15774235 -0.116785266 -0.023880657 -0.114663914 -0.01754481
0.10782766 0.008795398 -0.14329961 0.116933696 -0.08784922 0.11496901 0.12439233 -0.022811184
0.16671911 -0.024730057 0.0018755728 -0.016380696 0.03416212 -0.0045711338 -0.060821854 0.102042116
-0.15887232 -0.080708034 0.11461548 0.14821246 0.08800468 -0.13522156

GRU1.bias_hh_l0 f4 [150]
00000000: c81d 0c3e c146 6ebd 4422 89bd b346 8d3c
00000010: ead2 bfbd 87eb af3d 19de ae3d 6c18 7ebd
00000020: 423a 2c3e 441b 153e 1ec5 cd3a 9877 b0bd
00000030: 7013 943c cd8a b23d 9407 a83d f73e 8c3d
00000040: b840 0a3d fd04 aabd d08f 3a3e 0873 a0bd
00000050: 50d8 d33d 9c29 c5bd dbf8 8abd ff56 f93d
00000060: b358 183e 872b 0b3e ab03 48bd 21f6 0e3e
00000070: 3673 51bd fbe9 acbd d6db c83d 4102 6bbd
00000080: 1fda 113e 7b4c 05be d5f4 323c 2a04 e03d
00000090: b276 6cbd 7894 5a3d 1d08 813d 90af 75bd
000000a0: 0e89 f53a 5e91 dd3d 1e33 073e d8ae 453d
000000b0: eb91 cdbd 5efd 16be deb3 e13b 08e6 ba3c
000000c0: c649 b4bd 3987 aebd 55ae ed3c d02f e0bb
000000d0: f86b 1bbe 8520 11bd a673 0dbe b383 ecbd
000000e0: 15de dd3d aa3f 3bbd 3c4f 023d 0412 06be
000000f0: 92c1 a93d 5ce8 083e e003 db3d 7cd0 f93d
00000100: dc8e e23d 142c bb3d a67f 5cbc 26cf 21be
00000110: 115d 623c 6049 cc3d 99b6 dbbc 4ec2 49bd
00000120: ca1d f6bb 391f 4b3d ec33 e0bd 13b8 d6bd
00000130: 071d 07bd 7071 953c 83ec 7f3d a543 243d
00000140: fcd4 873d e2a6 cdbd ad7e d53d 39b6 913c
00000150: e250 0cbe 547c b93c f14d d23d 7005 16be
00000160: 68ce b53d f186 a2bc 47e1 f1bc aa40 ac3d
00000170: a617 cbbd e63c 003c 3674 05be 39b5 c1bc
00000180: 8e0c c23d 65c4 d3bc 7409 97bd 121f 183d
00000190: 87c5 c1bc 41a9 5b3d 836b 5ebd 9c33 c83d
000001a0: 73ce 3fbc 43bc b5bd 54fd 92bd cc9a 923c
000001b0: 2cb5 85bd 0105 9e3c a105 adbd 9a6b 83bd
000001c0: 8eb8 223b 77eb 6c3d 32d0 bd3d ce48 fcbd
000001d0: 0296 01be 9c64 a4bb 4773 ab3d 896b dc3c
000001e0: bd02 e0bd 3ccf 1f3e d3a0 ce3c ad4b 8cbd
000001f0: f0b1 25be 01b2 1bbe 5473 79bc af65 debd
00000200: 0d63 ef3d 36a5 303e b6fc 0abe b93d 7cbd
00000210: 2597 02bd 780d df3d b166 ed3d b9fa 34be
00000220: 0096 1c3e a717 07be 28bc d6bc 11b5 dcbd
00000230: 33a2 873d 4643 04be 8178 033a ec1f 2ebd
00000240: c25e 49bc 8c11 e9bd 8beb c03d c181 f1bc
00000250: 7372 89bb 1fb7 fb3b
0.13683236 -0.058172945 -0.06695989 0.017245626 -0.093664005 0.08589845 0.085384555 -0.06203501
0.16819099 0.14561182 0.0015699004 -0.08616561 0.018075675 0.087178804 0.082045704 0.06847947
0.033753127 -0.08301733 0.18218923 -0.078344405 0.10343993 -0.09627077 -0.06785747 0.12174796
0.14877586 0.13590823 -0.048831623 0.13961078 -0.051135264 -0.08443066 0.098075554 -0.057375196
0.14243363 -0.13017456 0.01092263 0.10938294 -0.057730384 0.053364247 0.063003756 -0.059981883
0.0018732862 0.10818742 0.13203093 0.048262447 -0.10037597 -0.1474509 0.006887897 0.022814766
-0.08803134 -0.085218854 0.029013792 -0.006841637 -0.15177906 -0.035431404 -0.13813648 -0.11548557
0.108333744 -0.04571501 0.031813845 -0.1309281 0.08288874 0.13369888 0.106940985 0.12197968
0.110624045 0.091392666 -0.013458168 -0.15801677 0.013816134 0.09974933 -0.026820468 -0.04925757
-0.0075108754 0.049590323 -0.10947403 -0.10484328 -0.032986667 0.018242568 0.062481415 0.040103573
0.066324204 -0.10041596 0.10424552 0.017787086 -0.1370273 0.022642292 0.102687724 -0.14650512
0.088772595 -0.019839736 -0.029526366 0.08410771 -0.0991662 0.007827019 -0.13032612 -0.023645984
0.09475051 -0.025850484 -0.0737485 0.037139006 -0.023653759 0.05362821 -0.05430175 0.09775469
-0.011706936 -0.08873799 -0.07177225 0.017896079 -0.065286964 0.019289495 -0.08448339 -0.06417008
0.0024829241 0.057841744 0.09268226 -0.12318574 -0.1265488 -0.0050168764 0.08371597 0.026906746
-0.10938022 0.15606397 0.025223171 -0.068503715 -0.16181159 -0.15204622 -0.01522525 -0.10859238
0.11688814 0.17250523 -0.13572964 -0.0615823 -0.031882424 0.10891241 0.115918525 -0.17673768
0.15291595 -0.13192616 -0.026212767 -0.10776723 0.06622734 -0.12916288 0.000501521 -0.04251091
-0.012290658 -0.113803 0.09419926 -0.029480817 -0.0041945516 0.007681742

linear1.weight f4 [16, 50]
00000000: 9ce4 10bd 431d 6bbd f57d bdbd 04a3 e73d
00000010: 2af9 19be de29 953d d5e8 d2bd 0714 b23d
00000020: 2d57 f83c 5f4e 2f3e 8d9a dabb 22af 193d
00000030: c0c1 7abd 694f ca3d 9cff 823d a270 453d
00000040: a9b2 18be 6054 9cb9 b4d6 4a3d 9b15 4cbd
00000050: 08e2 b4bd 07b1 d6bc e524 1f3e 1401 993c
00000060: 8073 003d 254c a03d 6418 d2bd cf6f b33d
00000070: 86b4 debd 3626 f43d 53ca c33d 0a74 163e
00000080: dd78 23bc aa6e 8fbd 3989 963d 7823 c33d
00000090: 34ab 2f3e 3cbf ef3b 51f9 aebd a64d 32bd
000000a0: 22f4 103e a23b a0bd 5091 e43d d7e7 c03d
000000b0: 7c28 b2bd 9a1e ba3d be49 903d 0512 afbd
000000c0: 19aa 053e ac6e 10be b965 bcbd 23cc 833c
000000d0: 18e8 9cbc 66e9 203e 9d3f a73d 3cbd 93bb
000000e0: 0ce8 8abd 335f cdbb 8152 9dbd 0235 a73c
000000f0: a5e3 a33d 3660 5bbc 92dc e0bc fc16 ecbc
00000100: 3438 203b 214f d3bd 374f 0bbd 3115 d8bd
00000110: 3d4a 243d 0932 1fbe ee5d 2dbe 3f1b 37bd
00000120: 86d5 6bbd 7000 15be 1d84 18be e9cf 1cbe
00000130: e8bb 1abe cdc8 91bd f231 eb3d a836 c63b
00000140: 1e3d 9bbc 0fce 363e dadb 1bbb 9213 243d
00000150: 5cda a33d 0128 30be 7448 b13d dfdd 333d
00000160: 8f5d b6bd 56b7 ff3c f093 ff3c 7794 bcbd
00000170: bcca 22bd f3bd 56bd 50ce 25be c54e 3abd
00000180: f1bb 3fbd 97ae 28bc d699 ecbb 9082 003d
00000190: 6a13 eabd 56cc 4dbd f5ff 21be 806e 29bd
000001a0: f1da 69bd 912c 8f3d 2234 bcbd ca06 d43d
000001b0: b424 cfbd 8966 a43d 5060 85bd 03e1 f93c
000001c0: 1722 1c3e a554 abba d906 ffbc 7dc0 463d
000001d0: a558 6bbd 26ec cd3d 6a4d 24be 0b80 aabd
000001e0: e8ad 013d 1947 40bd 584b 3abd e1cb cebd
000001f0: 2685 973d 8b53 96bd 1b8f 8bbc d292 babd
00000200: 6b72 b5bd a3a3 013e c6bc 13be 2da8 e33d
00000210: 9083 43bd 205e 123e 0fba 2b3e 61fd 86bd
00000220: 938b 0ebd d327 1e3d 35c9 bcbd 7e92 61bd
00000230: 1b5d acbc f643 d1bc a1fd 803c 6470 ee3d
00000240: 2f3f 1fbe 197b 413d 85af 293e a7a3 e93d
00000250: abeb 22bd d125 ac3d 3fa7 afbd cbc9 c3bd
00000260: 1b68 d03d 32ec 9e3d 5c72 95bd d55c b03d
00000270: d0a7 02be 6d37 dcbd 5482 443d 7bcb a1bc
00000280: a0ea 853d 6583 fc3c 4aeb de3d 3413 babc
00000290: 1929 b8bd 5ea5 a03d 9fed 2a3d f47f cdbc
000002a0: de80 14bd 477b a83d 2e93 9a3d a05f 0a3e
000002b0: ea06 8b3d 9bc3 c4bd 0a62 32be 63dd 99bd
000002c0: 7a66 47bd e1a5 35be 6eb6 9e3d 1dc4 2f3d
000002d0: 381d 18be 8200 1b3c 3946 dbbd ffa8 803d
000002e0: 6bc9 3fbd a277 25bd e412 7cbc 670a 833d
000002f0: bf22 18bd d25d 39be ea98 3d3e c753 203c
00000300: 4eec e73d fceb cd3d f412 96bd 524b 25be
00000310: 34a0 cebc f73e 0e3d 26e3 033e 101b 2abd
00000320: 627d 483d 0ef2 643d ddf1 0bbe d1c1 80bc
00000330: 30c5 803c e75c 903d 472a 0cbd 2c92 273d
00000340: 3668 c9bb 0592 223e f2ad 253d e840 da3d
00000350: 5664 353e d2ac e1bc d0af 273e 1668 6bbd
00000360: e560 963d 0488 d53d 8dcc d1bd 119c a33d
00000370: 3927 d93a 17e3 853d 5ae9 113d 1f8b b43d
00000380: f12b 14be b167 11bc e48d 04be d698 25be
00000390: d3d1 a3bd f044 d43d 84f3 edbd 3703 033e
000003a0: 8641 3bbd 5b66 0cbd 9dbe 2b3e 034d 63bd
000003b0: 64c1 70bd 656b 76bd 6f2b 87bd 3d78 803b
000003c0: 5c00 c9ba f019 e0bd ae84 1c3b 10c6 203e
000003d0: f42e 9f3d 7642 8fbb 76bf 203d 3673 1b3c
000003e0: 7b88 b63c 7fc0 e8bc 9f97 1e3c 0df7 1f3e
000003f0: 601c 993d 4c1b dd3d bc5f 00be 094e 97bd
-0.03537427 -0.057400953 -0.0925254 0.1131039 -0.15036455 0.07283376 -0.102983154 0.08695226
0.030315006 0.1711974 -0.006671256 0.037520535 -0.06121993 0.098784275 0.0639641 0.04820312
-0.14911903 -0.00029817503 0.049521163 -0.049825292 -0.088321745 -0.02620746 0.15541418 0.018677272
0.03136015 0.078270234 -0.102585584 0.0876156 -0.10874276 0.11921351 0.09560075 0.14692703
-0.0099775465 -0.07003529 0.07350392 0.095282495 0.17155153 0.007316498 -0.08543647 -0.043531083
0.1415563 -0.07823874 0.11160529 0.0941922 -0.08699128 0.09087868 0.07045315 -0.08548359
0.13053168 -0.14104718 -0.091990896 0.01608855 -0.01915364 0.15714034 0.0816643 -0.0045086425
-0.06782541 -0.006267452 -0.07681752 0.020411018 0.08002404 -0.013389638 -0.027448926 -0.028819554
0.0024447562 -0.10317827 -0.034011092 -0.10550917 0.04010986 -0.1554643 -0.16930363 -0.04470372
-0.05757668 -0.14550948 -0.14894147 -0.15313686 -0.15110743 -0.07118378 0.11484136 0.006048996
-0.018950041 0.17852043 -0.0023782165 0.040057726 0.08000633 -0.1720276 0.086563975 0.043912765
-0.08904564 0.031215351 0.031198472 -0.09208005 -0.039744124 -0.052427243 -0.16191983 -0.045485277
-0.046810094 -0.010295532 -0.007220487 0.031374514 -0.11429484 -0.050243698 -0.15820296 -0.041365147
-0.057093564 0.06990922 -0.09189631 0.103528574 -0.101144224 0.080273695 -0.06512511 0.030502802
0.15247379 -0.0013071491 -0.031131195 0.048523415 -0.057457585 0.10054807 -0.16045156 -0.083252035
0.03165999 -0.046942804 -0.04548201 -0.100974806 0.07398443 -0.07340153 -0.017036011 -0.09110035
-0.08859714 0.12660079 -0.1442748 0.11116061 -0.04773289 0.14293718 0.16770194 -0.06591297
-0.034801077 0.038612198 -0.09218065 -0.055071346 -0.02104049 -0.025545102 0.01574594 0.116425306
-0.15551446 0.047236536 0.16570862 0.11408167 -0.03977553 0.084056504 -0.085768215 -0.09559973
0.101761065 0.077598944 -0.07297203 0.08611456 -0.12759328 -0.10752759 0.047975853 -0.019750347
0.06538892 0.030824373 0.108847216 -0.022714235 -0.08992214 0.07844041 0.04173052 -0.025085427
-0.03625571 0.08226638 0.075476035 0.1351304 0.06788428 -0.09607621 -0.17420211 -0.07512929
-0.048681714 -0.17739059 0.077496395 0.042911638 -0.14854896 0.00946057 -0.10706753 0.062822334
-0.046822947 -0.040397294 -0.015385363 0.063984685 -0.03714251 -0.18102196 0.18515363 0.009785599
0.113243684 0.10054776 -0.07327834 -0.16142014 -0.025222875 0.034728017 0.12879619 -0.041529715
0.0489477 0.055894904 -0.13666482 -0.015717419 0.015719026 0.0704897 -0.034220006 0.040910885
-0.006146456 0.15876015 0.04044909 0.10656911 0.17714056 -0.027548227 0.16375661 -0.05747231
0.073427 0.104263335 -0.10244093 0.07988752 0.0016567475 0.065374546 0.035622932 0.08815598
-0.14469887 -0.00887482 -0.12944752 -0.16171584 -0.07999005 0.10364711 -0.116187125 0.12794195
-0.045716785 -0.0342773 0.16771932 -0.055493366 -0.05877818 -0.060161013 -0.06600081 0.0039205835
-0.001533519 -0.10942447 0.0023882794 0.15700555 0.077726275 -0.0043719364 0.03924509 0.009487918
0.022281876 -0.028412102 0.009679704 0.15621586 0.07476115 0.10796222 -0.1253652 -0.07387931

linear1.bias f4 [16]
00000000: 4b5b 183e 22fa 8b3d 6003 eb3d f6f5 38bd
00000010: db0f 18bd 6817 21bd 6678 0f3d 7580 19bd
00000020: 49b6 64bd 4225 40bd 3b23 1a3e c6e8 9ebd
00000030: 4053 6abd c953 323d 2a29 8c3d 8404 e53d
0.14878576 0.068348184 0.11475253 -0.04515644 -0.037124496 -0.039328963 0.03502693 -0.03747602
-0.055837903 -0.04691053 0.15052502 -0.07759242 -0.0572083 0.043536935 0.06843789 0.11182502

residual.weight f4 [1, 4]
00000000: f187 fc3e 5155 0ebd 7a67 5c3e fd8d 47be
0.49322465 -0.034749333 0.21523848 -0.19487758
